app/AI_models/checkpoints/meso_net_epoch_40-50.pth (torch, 290858 bytes, 28 tensors)

conv1.weight f4 [8, 3, 3, 3]
0	0x3dd1d069	0.10244829
1	0xbca98da4	-0.020697422
2	0x3e01d3ac	0.12678403
3	0xbd48cf75	-0.04902597
4	0xbdf36495	-0.11884419
5	0x3d47b9c5	0.048761148
6	0xbcab2399	-0.020890998
7	0x3de6a9f2	0.11262883
8	0x3dd0c291	0.101933606
9	0x3e013dab	0.1262118
10	0xbd2b0060	-0.041748405
11	0xbe3e2321	-0.18568088
12	0x3e42317d	0.18964191
13	0xbdf4fa5b	-0.11961814
14	0xbe40130c	-0.18757266
15	0xbe0ac9ae	-0.13553497
16	0xbd9e0211	-0.07715238
17	0x3ce25ecc	0.027633093
18	0xbe183103	-0.14862446
19	0xbd9923ed	-0.074775554
20	0x3ca804fa	0.020510186
21	0x3e2f39b9	0.17111863
22	0x3b358486	0.0027697398
23	0x3dd78d07	0.10524946
24	0x3e448923	0.19192939
25	0xbde54e76	-0.11196606
26	0x3e38745b	0.18013136
27	0x3e2b5d78	0.16734874
28	0xbe0dc1cf	-0.13843463
29	0x3d798a04	0.060922638
30	0x3dc1de74	0.09466258
31	0x3de38680	0.11109638
32	0x3d9a3ed9	0.075315185
33	0xbdc503e3	-0.09619882
34	0x3d5a40f9	0.05328462
35	0xbd97eda4	-0.07418373
36	0xbe3dd771	-0.18539216
37	0xbdb17001	-0.08663941
38	0xbbbecde0	-0.005822882
39	0xbdc6a6c7	-0.09699779
40	0x3d83d2c0	0.06436682
41	0x3d2a64d4	0.041600063
42	0xbce8b47c	-0.028406374
43	0xbc891e86	-0.016738188
44	0xbe0f4c40	-0.13993931
45	0xbdf9af93	-0.12191691
46	0x3cae968c	0.02131202
47	0xbe41a894	-0.18911964
48	0x3e016036	0.12634358
49	0x3d938160	0.07202411
50	0x3e3a4f6f	0.18194364
51	0xbe04507c	-0.12921327
52	0x3d674aea	0.056467928
53	0x3d8cb69c	0.068707675
54	0xbe40075e	-0.1875281
55	0xbe2bfb3c	-0.16795057
56	0xbe435b24	-0.19077736
57	0xbdcf6838	-0.101273
58	0x3d6fc27e	0.05853509
59	0x3e00ef39	0.12591256
60	0xbcbed5c6	-0.023295294
61	0x3e14a505	0.14516075
62	0x3e10b6d6	0.14132246
63	0xbd9ac159	-0.075564094
64	0xbe2276e0	-0.1586566
65	0xbcc8de2d	-0.024520004
66	0xbd5a6840	-0.053322077
67	0x3d44be26	0.048032902
68	0xbd8753cf	-0.06607782
69	0x3e42fca6	0.1904169
70	0xbe15be35	-0.1462334
71	0x3d9deeea	0.07711585
72	0xbdfdd9a2	-0.12395026
73	0xbdafbe4f	-0.0858122
74	0xbe43bf1f	-0.19115876
75	0xbe43b667	-0.1911255
76	0xbda68608	-0.08131033
77	0x3da13124	0.07870701
78	0x3d90e195	0.07074276
79	0x3def090f	0.1167165
80	0xbe2e5be2	-0.17027238
81	0x3e0b8a2c	0.13626927
82	0x3dbcc44f	0.092171304
83	0x3caa8b6d	0.020818437
84	0xbe192de5	-0.14958914
85	0xbe299a7e	-0.1656284
86	0xbd73240e	-0.059360556
87	0xbd346112	-0.044037886
88	0xbc816b9a	-0.015798379
89	0x3e3e7f47	0.1860324
90	0x3e20cc5a	0.15702954
91	0x3dffb52f	0.1248573
92	0x3d8f9fd1	0.070129044
93	0x3d01d7c7	0.031699922
94	0xbe38495a	-0.17996731
95	0x3e22fe67	0.1591736
96	0xbc4337fa	-0.011915201
97	0xbde436f6	-0.111432955
98	0xbdaa9261	-0.08328701
99	0x3dee3749	0.116316386
100	0xbd9f2f82	-0.07772733
101	0xbda46a7e	-0.08028124
102	0xbd40edd6	-0.047101818
103	0xbe336b07	-0.17521296
104	0x3d872d7b	0.066004716
105	0xbdb106a8	-0.08643848
106	0xbdc43e58	-0.095822036
107	0xbc87ea39	-0.016591178
108	0xbc8de67e	-0.017321821
109	0xbe000cca	-0.12504879
110	0xbe4062fa	-0.18787757
111	0xbe297b60	-0.1655097
112	0xbe39e6ee	-0.18154499
113	0x3d1b8863	0.037971865
114	0xbe3a9553	-0.18221025
115	0x3e2d60f8	0.16931522
116	0x3c8c542a	0.017129976
117	0xbe057b1d	-0.13035245
118	0xbd711561	-0.05885828
119	0x3be70dc8	0.0070512034
120	0x3de3e01b	0.11126729
121	0xbd47c16b	-0.048768442
122	0x3d7e3eeb	0.062071722
123	0x3e0a8025	0.13525446
124	0xbe0fd0e6	-0.14044532
125	0x3e14c184	0.14526945
126	0x3d1ec639	0.03876326
127	0x3c873f46	0.016509663
128	0x3dae9238	0.08523983
129	0x3d635c46	0.05550792
130	0x3ded445a	0.11585303
131	0xbe08fe65	-0.13378294
132	0xbd8c19e6	-0.06840877
133	0x3bf0fafc	0.0073541384
134	0xbe3414c4	-0.17586046
135	0xbd506e0c	-0.0508862
136	0xbda715c6	-0.0815845
137	0x3ddb0de5	0.106960095
138	0x3dd96406	0.10614781
139	0xbdd17a91	-0.10228456
140	0xbdf03f66	-0.11730842
141	0x3c64a09c	0.013954308
142	0xbdcdeae0	-0.100545645
143	0x3d2532c8	0.040331632
144	0xbe29a0f7	-0.1656531
145	0x3d83cc5f	0.06435465
146	0x3d93acd8	0.07210702
147	0xbe44248b	-0.19154565
148	0x3d6fe570	0.058568418
149	0xbcdb6618	-0.02678208
150	0x3e0b4271	0.13599564
151	0x3dc950e0	0.09829879
152	0xbe1aef24	-0.15130287
153	0xbd3414d7	-0.043965187
154	0xbd94230e	-0.07233249
155	0xbdd42a2a	-0.10359605
156	0xbdcaa9be	-0.09895657
157	0xbdfeb1ec	-0.1243628
158	0x3e304471	0.17213608
159	0x3e433444	0.19062907
160	0xbcecbb52	-0.028897915
161	0xbe41bd35	-0.18919833
162	0xbe1dad20	-0.15398073
163	0x3e19177b	0.14950363
164	0x3e3a1e63	0.18175654
165	0x3e2cf8ea	0.16891828
166	0x3df10011	0.11767591
167	0x3de04c48	0.109520495
168	0x3c89149f	0.016733466
169	0xbe1872e0	-0.14887571
170	0xbe334bce	-0.17509386
171	0xbd359bca	-0.044338025
172	0xbd338668	-0.04382935
173	0xbd7bc34c	-0.061465546
174	0x3d59cef9	0.0531759
175	0x3d3be847	0.045875814
176	0x3e325771	0.17416169
177	0x3e06d23b	0.13166134
178	0xbbc148aa	-0.005898555
179	0x3d9ee817	0.077591114
180	0x3dc22490	0.0947963
181	0x3d79ebee	0.061016016
182	0x3d6d5815	0.05794533
183	0x3df1f872	0.11814965
184	0x3d75f235	0.06004544
185	0xbd9412ab	-0.07230123
186	0x3aca8090	0.0015449692
187	0x3e05b0b4	0.13055688
188	0xbd48b160	-0.048997283
189	0x3d16373a	0.036673762
190	0xbe42fac5	-0.19040973
191	0x3e1b4f82	0.15167049
192	0xbd882d39	-0.066492505
193	0xbe1370c3	-0.14398484
194	0xbda65bc9	-0.081229754
195	0xbd421d25	-0.047391076
196	0xbe12e502	-0.14345172
197	0xbe251600	-0.16121674
198	0x3dfe9608	0.1243096
199	0x3c8e0163	0.017334646
200	0x3d808aeb	0.062764965
201	0xbd17260a	-0.03690151
202	0x3e09f67e	0.13472936
203	0x3e226522	0.15858892
204	0xbdb70a8d	-0.08937559
205	0xbd23c45f	-0.039982196
206	0xbe2b4175	-0.16724189
207	0x3e27218a	0.16321388
208	0xbd87865c	-0.06617424
209	0x3de0e646	0.10981421
210	0x3ddf4d10	0.109033704
211	0xbdfb1fd4	-0.1226193
212	0xbdec0584	-0.115244895
213	0xbdb5ecfb	-0.08883091
214	0xbd6f6d91	-0.0584541
215	0xbe30722d	-0.17231055

conv1.bias f4 [8]
0	0x3e26e1b7	0.16297041
1	0x3de9238c	0.11383733
2	0xbdef6c24	-0.11690548
3	0x3e14fd3a	0.14549723
4	0xbc0ea144	-0.008705441
5	0x3e0c17d7	0.13680969
6	0x3dc7fc23	0.09764888
7	0xbd8d925f	-0.06912684

bn1.weight f4 [8]
0	0x3f7fe7cd	0.99963075
1	0x3f801a64	1.0008054
2	0x3f800443	1.00013
3	0x3f802738	1.0011969
4	0x3f7ff8ff	0.9998931
5	0x3f7ff7ae	0.99987304
6	0x3f7f86ef	0.9981527
7	0x3f80076a	1.0002263

bn1.bias f4 [8]
0	0xb903e253	-0.00012577446
1	0x383968fe	4.420522e-05
2	0xb82bcde0	-4.0961313e-05
3	0x3a6d4674	0.0009051331
4	0xb8e85890	-0.00011079118
5	0xb99a4168	-0.000294219
6	0x38895550	6.54856e-05
7	0x39931b7e	0.00028058508

bn1.running_mean f4 [8]
0	0x3e32840e	0.17433187
1	0x3dde1cba	0.10845323
2	0xbe2b29bb	-0.16715138
3	0x3e07bfc5	0.13256748
4	0xbd1ffcc2	-0.039059408
5	0x3ddad6b0	0.1068548
6	0x3e178fd4	0.1480096
7	0xbdd80457	-0.10547703

bn1.running_var f4 [8]
0	0x39a5d645	0.00031630896
1	0x39475c29	0.00019012451
2	0x3bb200dc	0.0054322314
3	0x3a4d098c	0.0007821552
4	0x3adb9d7c	0.0016755308
5	0x3ae32d40	0.0017332211
6	0x3b9a7d6c	0.0047146585
7	0x3b4ee98f	0.0031572317

conv2.weight f4 [8, 8, 3, 3]
0	0xbd9e52d8	-0.07730645
1	0x3d42928a	0.04750303
2	0x3d559965	0.05214824
3	0xbdde23a1	-0.108466394
4	0x3d14fbeb	0.03637306
5	0xbdd3c55f	-0.1034038
6	0x3d6e992b	0.05825154
7	0x3d950a99	0.07277412
8	0x3cb80cf8	0.022467121
9	0x3cb9c1ab	0.022675356
10	0x3d46b9c6	0.04851701
11	0xbdb805f2	-0.08985509
12	0xbd5eb551	-0.054372136
13	0xbd47b100	-0.048752785
14	0x3d0e65a1	0.03476489
15	0x3dae3a47	0.08507209
16	0xbdd2cb54	-0.10292688
17	0xbd175938	-0.03695032
18	0xbde695c2	-0.11259033
19	0x3c956788	0.018237844
20	0x3de34107	0.11096387
21	0x3d01f788	0.031730205
22	0x3d85d78b	0.06535252
23	0x3d6328c1	0.055458788
24	0xbdb3ada6	-0.08773355
25	0x3cccf5b8	0.025019512
26	0x3d768152	0.060181923
27	0x3def2211	0.116764195
28	0x3b701683	0.0036634512
29	0xbcdada3a	-0.026715387
30	0x3db086e2	0.08619477
31	0xbd7b7b6d	-0.061397005
32	0xbd706bfc	-0.058696732
33	0xbd6ea25b	-0.058260303
34	0x3d60575c	0.054770812
35	0xbd2b3186	-0.041795276
36	0xbdc9ceb3	-0.09853878
37	0xbd79a43a	-0.060947634
38	0x3d9377a5	0.07200555
39	0x3d15e122	0.036591657
40	0xbdcf83ae	-0.10132538
41	0x3b8d6775	0.0043153116
42	0x3dd1ae49	0.102383204
43	0x3a7b6c4d	0.0009591028
44	0xbdd7cd21	-0.10537172
45	0xbde9a6f0	-0.11408794
46	0x3dc7e060	0.09759593
47	0xbc7e4f2c	-0.015521806
48	0x3d3dbe4b	0.046324056
49	0xbd23d48a	-0.039997615
50	0xbc30a380	-0.010781169
51	0xbcee3e5d	-0.029082472
52	0xbdb64947	-0.08900695
53	0x3cc754c6	0.024332415
54	0x3d827f70	0.06371963
55	0xbd9d96be	-0.076947674
56	0x3cff6da0	0.031180203
57	0xbd91880e	-0.071060285
58	0x3de2b8a9	0.110703774
59	0x3d001f02	0.03127957
60	0x3d5ea4f4	0.05435653
61	0xbd1fa504	-0.03897573
62	0xbde6099c	-0.112323016
63	0x3da6ca2e	0.081440315
64	0xbc41bfcd	-0.011825514
65	0xbcd7d2f2	-0.026345704
66	0x3ce36134	0.027756311
67	0x3ce66db9	0.028128492
68	0xbdb90db5	-0.090358175
69	0x3ca457fe	0.02006149
70	0x3cace9e5	0.021107623
71	0xbc9029a5	-0.017597983
72	0xbc32e8c7	-0.010919756
73	0x3bf8d3a3	0.0075935884
74	0xbd054bab	-0.032542866
75	0xbd407139	-0.046982978
76	0x3d2ed3f6	0.04268261
77	0x3d97087f	0.073746674
78	0xbc21a051	-0.009864883
79	0xbdcd1513	-0.10013785
80	0x3ce60757	0.028079672
81	0x3ca4f85b	0.020137956
82	0x3ce9e616	0.028552096
83	0xbcbaa148	-0.022781983
84	0xbcabc3f8	-0.020967469
85	0x3caa82e1	0.020814361
86	0x3da75143	0.08169796
87	0x3c6db577	0.014508597
88	0xbd98d757	-0.07462948
89	0xbd90d06f	-0.070710056
90	0xbdaf7a4e	-0.0856825
91	0xbbaa5033	-0.005197549
92	0x3d90ad1b	0.07064267
93	0xbd82f050	-0.06393492
94	0x3b3c8be7	0.0028769912
95	0xbc092a87	-0.008371956
96	0x3bf70116	0.0075379713
97	0xbd9ff83b	-0.07811018
98	0x3dd28c3c	0.10280654
99	0x3bd2416e	0.006416491
100	0x3ba043a6	0.004890877
101	0x3d561d91	0.05227429
102	0xbd13555a	-0.03597007
103	0xbc2deb35	-0.01061516
104	0xbd5614d9	-0.052265976
105	0x3de556c2	0.11198188
106	0x3dc84020	0.09777856
107	0x3d103d46	0.035214685
108	0x3a7ef4f6	0.0009725833
109	0x3dadb959	0.08482618
110	0xbde4db28	-0.11174613
111	0xbddbba5c	-0.107289046
112	0x3db43c8c	0.08800611
113	0x3ddafe2a	0.10693009
114	0xbd6aafa3	-0.057296406
115	0x3d2ba14a	0.041901864
116	0x3daccb92	0.084372655
117	0xbd65717d	-0.056016434
118	0xbd8b86f8	-0.068128526
119	0x3db91c9c	0.0903866
120	0xbd91e6cc	-0.07124099
121	0x3dcee061	0.10101391
122	0xbd9ae217	-0.075626545
123	0x3d6b4bee	0.05744546
124	0xbc299307	-0.010349995
125	0xbc7507d0	-0.014955476
126	0xbc5d086b	-0.0134907765
127	0xbd923a0c	-0.07139978
128	0x3d331a5f	0.04372632
129	0xbae64f59	-0.0017571255
130	0x3dbdcc7e	0.092675194
131	0x3cf4ce88	0.029883638
132	0xbc688e6a	-0.01419411
133	0x3d391ec7	0.045195367
134	0xbdd32aa1	-0.10310865
135	0xbd2b6676	-0.04184576
136	0xbc23db01	-0.010000945
137	0x3d66aa33	0.05631466
138	0xbc964a5e	-0.018346008
139	0xbcd9fdef	-0.026610343
140	0xbdd405c1	-0.1035266
141	0xbdcd8855	-0.10035769
142	0x3dcc50a8	0.099763215
143	0x3dc4da6f	0.096119754
144	0xbd4bbabd	-0.049738634
145	0xbd87e155	-0.066347755
146	0xbd3721f7	-0.044710126
147	0x3d035dfb	0.03207205
148	0x3dee329c	0.11630747
149	0x3c424be1	0.011858911
150	0xbdae6efc	-0.08517262
151	0x3dddb107	0.10824781
152	0x3dc04a23	0.093891405
153	0xbceba2db	-0.028764179
154	0x3d8e743f	0.06955766
155	0x3d5ad612	0.05342681
156	0xbcff2d30	-0.031149477
157	0xbddacf3c	-0.10684058
158	0xbd369c57	-0.04458269
159	0x3b9a4f62	0.00470917
160	0xbdb7098c	-0.08937368
161	0xbd828411	-0.06372846
162	0xbd44b687	-0.048025634
163	0xbcc05db0	-0.023482174
164	0xbd5f083e	-0.05445122
165	0x3d9cfc06	0.07665257
166	0x3cf16e5b	0.029471567
167	0xbd35232a	-0.04422299
168	0x3c940f7a	0.018073786
169	0xbc9926cb	-0.018695256
170	0xbd847671	-0.064679034
171	0xbdc043ad	-0.09387908
172	0xbd8251c3	-0.06363251
173	0x3b41e37e	0.0029585059
174	0xbc4d658d	-0.012536419
175	0x3d28fea3	0.041258465
176	0x3d90e4b9	0.070748754
177	0xbde8b1ff	-0.11362075
178	0x3bac2955	0.0052539506
179	0x3d793ffe	0.060852043
180	0x3d82276a	0.06355174
181	0xbdb9654d	-0.09052525
182	0xbdb105bf	-0.08643674
183	0xbdea5c15	-0.114433445
184	0x3d44a97f	0.048013207
185	0xbd09138f	-0.03346592
186	0xbdc38670	-0.09547126
187	0xba853aee	-0.0010164657
188	0xbd645ba1	-0.055751447
189	0x3d90d292	0.07071413
190	0xbde029bb	-0.109454595
191	0xbd9e5d7c	-0.077326745
192	0xbd881a7b	-0.06645676
193	0xbdcbde98	-0.09954566
194	0x3dc0ff9e	0.09423755
195	0x3db3ad78	0.08773321
196	0xbddfe2a1	-0.10931898
197	0xbd8fe6de	-0.07026456
198	0xbd43e872	-0.0478291
199	0xbdabce35	-0.0838894
200	0x3dbd480c	0.092422575
201	0xbca90b6a	-0.020635325
202	0xbd889395	-0.06668774
203	0xbd8371ef	-0.064182155
204	0xbd0e9a94	-0.034815386
205	0x3de66f92	0.11251749
206	0x3d8c6f4a	0.06857164
207	0xbbbcd764	-0.0057629813
208	0x3dc8cf12	0.098051205
209	0x3d081fd8	0.033233494
210	0xbdb5e473	-0.08881464
211	0xbcb7c13a	-0.022431005
212	0xbdef5ad3	-0.11687245
213	0xbd204bbe	-0.039134733
214	0xbd47cc9b	-0.04877911
215	0xbd341913	-0.043969225
216	0xbd9c5a69	-0.07634432
217	0xbdbf5ac9	-0.09343488
218	0xbcd92225	-0.02650554
219	0x3d8e7a3b	0.06956907
220	0x3d25e9fc	0.040506348
221	0x3dc064ae	0.09394203
222	0xbd9f0cda	-0.07766123
223	0xbd892b29	-0.06697685
224	0x3c1a4c9c	0.009417679
225	0xbdccfccc	-0.10009155
226	0x3cccdb4f	0.025006918
227	0x3d129d4b	0.035794538
228	0xbceb2301	-0.028703215
229	0xbcb75ac1	-0.022382142
230	0xbc6cc445	-0.014451091
231	0x3da90106	0.08252148
232	0x3ddbc39e	0.107306704
233	0xbd5716d0	-0.05251199
234	0x3d1d06d7	0.0383366
235	0xbde3bb4e	-0.1111971
236	0xbd4d6cb7	-0.050152507
237	0x3d8e4dd7	0.069484405
238	0x3ddd4cfc	0.10805699
239	0x3d5b0203	0.053468715
240	0x3de0fb76	0.10985462
241	0x3de0da65	0.109791555
242	0x3d82ee56	0.06393115
243	0xbde318d3	-0.11088719
244	0xbdc20f5c	-0.09475586
245	0x3d8f7ae4	0.070058614
246	0xbdd831a9	-0.10556347
247	0x3d86c498	0.06580466
248	0xbdbab53b	-0.09116598
249	0x3d3d91a1	0.04628146
250	0xbdd83100	-0.10556221
251	0xbd11a52d	-0.035557915
252	0x3d392e93	0.045210432
253	0x3dc3810d	0.09546099
254	0x3c225bb9	0.009909564
255	0xbc24197e	-0.010015843

conv2.bias f4 [8]
0	0x3db43084	0.08798316
1	0x3da75206	0.081699416
2	0x3b1fef9b	0.002440429
3	0xbc4953d6	-0.012288054
4	0xbc46a801	-0.012125016
5	0x3dd8d6cf	0.105878465
6	0x3dd81f5b	0.105528556
7	0x3da073bf	0.07834577

bn2.weight f4 [8]
0	0x3f800e74	1.0004411
1	0x3f7fea67	0.99967045
2	0x3f800d7a	1.0004113
3	0x3f800cda	1.0003922
4	0x3f7ff7cc	0.99987483
5	0x3f800a51	1.0003148
6	0x3f7fd749	0.99937874
7	0x3f7fdaa7	0.9994301

bn2.bias f4 [8]
0	0x388690d5	6.416595e-05
1	0xb88f6cb2	-6.8390174e-05
2	0x39abbf1e	0.00032758055
3	0x390f7fd3	0.00013685161
4	0x38386894	4.3966415e-05
5	0x38c2b41e	9.28419e-05
6	0x38533b91	5.0361796e-05
7	0xb89741ce	-7.212498e-05

bn2.running_mean f4 [8]
0	0xbb3df4aa	-0.0028984942
1	0x3e07d18e	0.13263533
2	0xbef8939f	-0.48550126
3	0xbd96dd43	-0.07366421
4	0x3da86dbc	0.08224055
5	0x3e0ab164	0.13544232
6	0x3e856a30	0.26057577
7	0x3e89f966	0.26948088

bn2.running_var f4 [8]
0	0x3d0f5899	0.034996603
1	0x3d460790	0.048347056
2	0x3e05a751	0.13052107
3	0x3d84983c	0.06474349
4	0x3da81b11	0.082082875
5	0x3da1f556	0.07908122
6	0x3db57e62	0.08861996
7	0x3dfd9c98	0.123833835

conv3.weight f4 [16, 8, 3, 3]
0	0x3d91489d	0.07093928
1	0xbdcdf75c	-0.10056946
2	0xbd82da6f	-0.06389319
3	0x3cb87f88	0.02252175
4	0xbba850fc	-0.005136607
5	0x3bafe681	0.0053680544
6	0x3ac951b0	0.0015359428
7	0xbd8e10ec	-0.06936821
8	0x3d053190	0.03251797
9	0xbc95f412	-0.018304858
10	0x3d85b6c0	0.065289974
11	0xbcdab122	-0.026695792
12	0x3dcd528e	0.10025512
13	0xbd426ec8	-0.04746893
14	0x3d9a443b	0.07532545
15	0xbd077a20	-0.03307545
16	0xbdeffc2e	-0.11718021
17	0x3b27a5ad	0.0025580928
18	0x3cab8385	0.020936737
19	0x3d0697b0	0.032859504
20	0xbd1ac808	-0.03778842
21	0xbde9fa88	-0.11424738
22	0x3dc4e58d	0.09614096
23	0xbce90a4d	-0.028447295
24	0x3afd0f32	0.0019306897
25	0x3d81b81c	0.06333944
26	0xbd21603c	-0.039398417
27	0x3ddc5c76	0.10759823
28	0x3d2866ec	0.04111378
29	0xbdf01728	-0.11723167
30	0x3da82fd2	0.08212246
31	0xbd9c87c9	-0.076430865
32	0xbc354c3b	-0.011065538
33	0xbdcd0b20	-0.100118876
34	0x3d9bb41a	0.07602711
35	0x3d15ecb1	0.03660268
36	0xbdadbf5a	-0.08483763
37	0xbd207195	-0.03917082
38	0xbde4c4c8	-0.111703455
39	0xbd45efa9	-0.04832426
40	0x3d61c65e	0.05512082
41	0xbc235f74	-0.009971488
42	0xbdd6b991	-0.10484613
43	0x3c615f29	0.013755598
44	0x3dd19862	0.10234143
45	0xbdb7026b	-0.08936008
46	0x3d1758e2	0.03695
47	0xbd753533	-0.059865188
48	0xbd8d9b87	-0.0691443
49	0x3da3f056	0.08004825
50	0xbb132202	-0.002245069
51	0x3cf8e350	0.030381829
52	0x3d58d3fe	0.052936547
53	0xbc4fd81a	-0.0126858
54	0xbd094df8	-0.033521622
55	0x3dcf440a	0.10120399
56	0x3cdccf1b	0.026954224
57	0xbc3f03a7	-0.011658586
58	0x3dd730fa	0.105073884
59	0xbc6e151e	-0.014531402
60	0xbd54fde5	-0.051999945
61	0x3d5589fa	0.052133538
62	0x3cbb7d67	0.022886945
63	0x3c86de2e	0.016463365
64	0x3d6d7c2d	0.05797975
65	0xbd5b7374	-0.0535769
66	0x3d274b23	0.04084314
67	0x3c9911b1	0.018685194
68	0xbde466c3	-0.11152413
69	0x3de25f5a	0.11053343
70	0xbdd134cf	-0.102151506
71	0x3c726efc	0.014796969
72	0xbd24f875	-0.04027601
73	0xbdb85fa9	-0.09002621
74	0x3d528a3a	0.051401354
75	0xbdb0df96	-0.08636396
76	0xbc149bf5	-0.009070386
77	0x3dc52f9b	0.09628221
78	0xbbd8a2eb	-0.006611218
79	0xbd2d00c8	-0.042237073
80	0xbdb75511	-0.08951772
81	0x3ddd159d	0.10795138
82	0x3d884f44	0.06655744
83	0x3dc9f003	0.09860232
84	0xba2ed04a	-0.0006668611
85	0x3d9063e0	0.070503
86	0xbde383a2	-0.11109091
87	0x3daa2b39	0.08309025
88	0x3d04d91d	0.032433618
89	0xbc1de711	-0.00963761
90	0x3dc88abd	0.09792087
91	0xbd9cc568	-0.0765484
92	0xbd7cba26	-0.061700962
93	0x3db4559a	0.0880539
94	0xbdec6828	-0.11543304
95	0xbbe14732	-0.006874942
96	0xbd1936f4	-0.037405923
97	0xbcbce918	-0.023060367
98	0x3dd2463e	0.10267304
99	0x3da053a4	0.07828453
100	0xbda5c457	-0.080940895
101	0xbda93e3a	-0.08263822
102	0xbcdfb7d4	-0.027309336
103	0xbc830989	-0.015995758
104	0xbb0be95a	-0.0021348805
105	0x3dddccd8	0.108300865
106	0x396ac61c	0.0002238978
107	0xbb46aad5	-0.0030314226
108	0xbc11a98f	-0.008890524
109	0x3d15812e	0.03650015
110	0xbc2e47b6	-0.010637214
111	0xbdbe25a3	-0.092845224
112	0xbd5639e0	-0.052301288
113	0xbd898cfe	-0.06716345
114	0x3d9dffe7	0.07714825
115	0x3bb69a05	0.00557256
116	0x3d8d376c	0.068953365
117	0x3cd6a3ea	0.026201207
118	0x3c1ed16c	0.009693485
119	0x3d1e77e6	0.038688563
120	0xbcfd0b4a	-0.030889172
121	0xbd1470de	-0.03624045
122	0xbcb4383f	-0.021999476
123	0x3c62199a	0.013800049
124	0xbd6d1a1b	-0.057886224
125	0x3dbc811b	0.092043124
126	0xbcb0a152	-0.021561299
127	0x3d9c3367	0.07626992
128	0x3dd20201	0.102542885
129	0xbd776d6f	-0.0604071
130	0x3d27dafa	0.040980317
131	0x3cdccfa5	0.026954481
132	0x3d459b3e	0.048243754
133	0x3d43e3db	0.04782472
134	0xbd88310d	-0.06649981
135	0x3d871b25	0.06596974
136	0xbdb68d64	-0.08913687
137	0xbd8ec799	-0.06971664
138	0x3c81d7bd	0.015849942
139	0x3dd3b950	0.1033808
140	0x3bdcb1ca	0.0067350613
141	0x3c955c93	0.01823262
142	0xbd7c7191	-0.061631743
143	0x3ddd790b	0.10814103
144	0xbdd4b6cb	-0.103864275
145	0xbcfb091f	-0.030643998
146	0x3db72e50	0.0894438
147	0x3d665f2f	0.056243118
148	0x3ca9fca2	0.020750348
149	0x3de406c5	0.11134104
150	0xbde572f4	-0.11203566
151	0x3d2d9b3f	0.042384382
152	0x3d860664	0.06544188
153	0xbdc2e7ff	-0.09516906
154	0x3dda982a	0.10673554
155	0x3dd53127	0.10409766
156	0xbcf75abe	-0.030194636
157	0xbdaffc2f	-0.08593022
158	0x3d98aaf5	0.074544825
159	0x3d99c548	0.075083315
160	0xbdc93bf2	-0.09825887
161	0xbb52795d	-0.0032115795
162	0xbd9e27b6	-0.07722418
163	0xbddc5ae3	-0.10759523
164	0x3d509b69	0.05092946
165	0x3dd2bce2	0.10289933
166	0xbd3c5231	-0.04597682
167	0xbdd3781f	-0.10325646
168	0xbdc26ff2	-0.09494008
169	0xbdc90a35	-0.098164
170	0x3db5276f	0.08845412
171	0xbd82d1cf	-0.06387674
172	0x3d2525c2	0.04031921
173	0xbdc24f8e	-0.0948783
174	0x3c5b8ef1	0.013400779
175	0x3dc71267	0.09720307
176	0x3d77396b	0.060357492
177	0x3d42ee18	0.047590345
178	0xbdb93d18	-0.09044856
179	0x3d589404	0.052875534
180	0x3c04c46f	0.008103474
181	0xbd3c6660	-0.04599607
182	0xbc5f2b01	-0.013621093
183	0xbda19068	-0.078888714
184	0xbdc53538	-0.09629291
185	0x3dd22110	0.102602124
186	0xbdf00643	-0.11719944
187	0x3cdf364b	0.027247569
188	0xbad6ab0f	-0.0016377884
189	0x3ca8b4a3	0.020593947
190	0xbd59ee60	-0.053205848
191	0x3b448f0d	0.0029992491
192	0xbc65de1e	-0.014030008
193	0xbd04b23e	-0.032396547
194	0x3d1c47bc	0.03815435
195	0x3daf017e	0.085452065
196	0x3dc25fcc	0.09490928
197	0xbce14ac2	-0.027501468
198	0x3c923713	0.017848527
199	0x3c9dde59	0.019271063
200	0x3ae80b8d	0.0017703638
201	0x3dc2cad5	0.095113434
202	0x3be6d2f0	0.0070441887
203	0xbd8896ba	-0.06669374
204	0xbd5c263e	-0.053747408
205	0xbdc7331c	-0.09726545
206	0x3de26216	0.11053865
207	0xbd91c1d8	-0.07117051
208	0xbb9ebde3	-0.0048444136
209	0x3d15a078	0.036529988
210	0xbcc23478	-0.02370666
211	0xbd585c50	-0.05282241
212	0x3da95325	0.08267812
213	0x3dd4dce7	0.10393696
214	0xbdb938ec	-0.0904406
215	0xbde6e188	-0.112734854
216	0x3dbac488	0.091195166
217	0x3dd301d3	0.10303082
218	0x3b902254	0.0043986235
219	0x3dd5d55d	0.104410864
220	0xbde2e6f9	-0.11079211
221	0x3d60e135	0.054902274
222	0x3d9ccba3	0.07656028
223	0x3dcfcca9	0.10146458
224	0xbdabe4e1	-0.083932646
225	0x3dcd56c5	0.100263156
226	0x3baa2ee9	0.0051935804
227	0x3a924c37	0.001116163
228	0x3d8f6536	0.07001726
229	0xbc859220	-0.01630503
230	0x3da39a31	0.07988394
231	0x3dcb5e67	0.09930115
232	0x3d1597ee	0.036521845
233	0x3d2d8ecb	0.042372506
234	0xbdceaa90	-0.10091126
235	0x3cc70eac	0.024298988
236	0xbd062061	-0.032745723
237	0xbdca3ff4	-0.09875479
238	0x3dc13622	0.09434153
239	0xbd77d75b	-0.060508113
240	0xbdc4042f	-0.095711105
241	0x3d42d1dc	0.04756342
242	0x3d30a96f	0.043130334
243	0xbd8ada1e	-0.06779884
244	0xbd8cd639	-0.06876797
245	0x3d24038b	0.04004244
246	0xbd90ef70	-0.07076919
247	0xbb500851	-0.0031743238
248	0x3db53f93	0.088500164
249	0xbc92cb7f	-0.0179193
250	0xbd77b405	-0.060474414
251	0xbd49472a	-0.049140133
252	0x3d84057c	0.064463586
253	0x3dabb17a	0.0838346
254	0xbda3c785	-0.0799704
255	0x3d8a2080	0.0674448

conv3.bias f4 [16]
0	0xbdaeda4a	-0.08537729
1	0xbc7315c2	-0.01483673
2	0xbdb9f049	-0.09079034
3	0xbd6f6e2e	-0.058454685
4	0xbb8a25b6	-0.0042159213
5	0x3deca7a4	0.115554124
6	0xbccc2b89	-0.024923103
7	0xbc5c18dc	-0.013433661
8	0xbd0c57e0	-0.03426349
9	0xbdd2f128	-0.10299903
10	0xbd7c4116	-0.06158551
11	0xbd46f9ad	-0.048577953
12	0x3a8cf67d	0.0010754612
13	0x3de8b364	0.11362341
14	0xbcf49ba3	-0.02985937
15	0xbda090fd	-0.07840154

bn3.weight f4 [16]
0	0x3f7ff23e	0.9997901
1	0x3f7ffdd4	0.99996686
2	0x3f800828	1.0002489
3	0x3f80082a	1.0002491
4	0x3f80064a	1.0001919
5	0x3f800bcf	1.0003604
6	0x3f7fe6f1	0.99961764
7	0x3f80005e	1.0000112
8	0x3f7ff305	0.99980193
9	0x3f7fe2f5	0.99955684
10	0x3f800102	1.0000308
11	0x3f800105	1.0000311
12	0x3f7ffb39	0.9999271
13	0x3f800012	1.0000021
14	0x3f7ff162	0.99977696
15	0x3f7ff6b7	0.9998583

bn3.bias f4 [16]
0	0xb6e44ad8	-6.8036425e-06
1	0x3913b7d3	0.00014087492
2	0x38a57217	7.889064e-05
3	0xb715503a	-8.899771e-06
4	0x392f9a65	0.00016746817
5	0x39705063	0.0002291813
6	0xb88015fa	-6.107609e-05
7	0xb82dc857	-4.1432995e-05
8	0x384bdac4	4.8602713e-05
9	0xb839ce99	-4.4299846e-05
10	0x32aac317	1.9879321e-08
11	0x388e1fb0	6.77699e-05
12	0xb89215f2	-6.96591e-05
13	0x3873b1d2	5.8101323e-05
14	0xb896072a	-7.153892e-05
15	0xb89a8778	-7.368525e-05

bn3.running_mean f4 [16]
0	0xbe2f2e95	-0.17107613
1	0x3e1d344f	0.15351985
2	0xbe5ceb47	-0.21574126
3	0x3e0cef49	0.13763155
4	0xbe8f5c17	-0.27999946
5	0x3ed66e8b	0.41881213
6	0x3e869559	0.26285818
7	0xbe09b712	-0.13448742
8	0x3eb29932	0.34882504
9	0xbdcd6e72	-0.100308314
10	0xbeb9ee55	-0.36314645
11	0xbee282d6	-0.44240445
12	0x3d1af9cf	0.037835892
13	0xbf1c3425	-0.61017066
14	0x3e114a8d	0.14188595
15	0xbd896830	-0.06709325

bn3.running_var f4 [16]
0	0x3da98da9	0.08278973
1	0x3e47d396	0.19514307
2	0x3e9aafc9	0.30212238
3	0x3e60b781	0.21945001
4	0x3e600bb9	0.21879472
5	0x3e99ca73	0.3003727
6	0x3de27187	0.1105681
7	0x3e039805	0.1285096
8	0x3f00ffb3	0.50390166
9	0x3e61656c	0.22011346
10	0x3e6ec976	0.23319039
11	0x3e99114d	0.29896012
12	0x3eb75cb8	0.35812926
13	0x3f3dcf93	0.7414486
14	0x3e94b166	0.29041594
15	0x3e195bfd	0.14976497

conv4.weight f4 [16, 16, 3, 3]
0	0x3d039808	0.03212741
1	0x3d7dc67c	0.061956868
2	0x3d6889e2	0.05677212
3	0x3d94b446	0.07260947
4	0x3d454ca2	0.048168786
5	0xbd9b9ab6	-0.07597868
6	0xbd489976	-0.048974477
7	0xbd65d671	-0.05611271
8	0x3c36c27b	0.011154766
9	0x3d73623b	0.05941985
10	0x3d74ec50	0.059795678
11	0x3d2c84f0	0.042118967
12	0x3d0159d1	0.031579796
13	0xbd8caacb	-0.06868514
14	0xbaa2f052	-0.001243124
15	0x3d641fd2	0.05569441
16	0xbcda636b	-0.026658734
17	0xbd0ebb3c	-0.03484653
18	0x3ced42e2	0.028962556
19	0xbd8d540f	-0.069007985
20	0xbd95a523	-0.07306888
21	0x3c277d39	0.0102227265
22	0xbd8750f0	-0.066072345
23	0xbd9bcb2e	-0.07607113
24	0x3d6c3b93	0.057674002
25	0x3ce8f126	0.028435301
26	0x3c6feb4c	0.0146435015
27	0xbd613aca	-0.054987706
28	0xbda9cfc7	-0.082915835
29	0x3c840e36	0.016120058
30	0xbc6b867a	-0.014375323
31	0x3da5df48	0.08099228
32	0x3d39727a	0.04527519
33	0x3d848849	0.06471307
34	0x3d5b1dd5	0.053495247
35	0x3d7f4a64	0.062326804
36	0xbc0111bb	-0.007877762
37	0xbd86be38	-0.0657925
38	0xbc57e3e2	-0.01317689
39	0x3d2ebf1c	0.042662725
40	0xbcd90d48	-0.02649559
41	0x3d744d63	0.059644114
42	0x3d5e51d6	0.054277264
43	0xbd602677	-0.054724183
44	0xbd95de61	-0.07317806
45	0x3d1bcca7	0.03803697
46	0x3cb1fa50	0.021725804
47	0x3c126909	0.008936175
48	0x3d868aa2	0.06569411
49	0x3b814a6f	0.0039456408
50	0xbc5ec1d0	-0.013596013
51	0xbc53a787	-0.01291836
52	0xbd89fcc7	-0.067376666
53	0xbc8dc124	-0.01730401
54	0x3d409817	0.047020044
55	0xbd947cd0	-0.072503686
56	0x3d74879e	0.059699647
57	0x3d9ff719	0.07810802
58	0x3d90c625	0.07069043
59	0xbb433a74	-0.002978948
60	0x3ca88116	0.020569365
61	0xbcf9b5d6	-0.030482214
62	0xbd9a384b	-0.07530268
63	0x3d41cbf5	0.04731365
64	0xbd4088e8	-0.047005564
65	0xbda49929	-0.080370255
66	0x3a9ec5f7	0.0012113441
67	0x3cca0513	0.024660623
68	0x3d977120	0.07394624
69	0xbd66ff76	-0.05639597
70	0xbd638c9a	-0.05555401
71	0x3c89dd93	0.016829288
72	0x3d0e834c	0.034793183
73	0xbd8b9092	-0.06814684
74	0xbc2f29a1	-0.010691077
75	0x3da88dcf	0.08230173
76	0xbd58a2c7	-0.05288961
77	0xbb8c19d2	-0.004275539
78	0x3d810e79	0.063015886
79	0xbc6840b5	-0.014175584
80	0x3cc16579	0.023607956
81	0x3d49028f	0.049074706
82	0xbcda82d7	-0.026673717
83	0xbc9f5045	-0.019447455
84	0x3d300dfa	0.04298208
85	0xbd82d7cf	-0.063888185
86	0xbce7acf1	-0.028280707
87	0xbc9dc1fb	-0.019257536
88	0x3cb18324	0.021668978
89	0x3da2276d	0.07917676
90	0x3d153b0f	0.036433276
91	0xbd496ed5	-0.049177963
92	0xbc2c6c5b	-0.010523881
93	0xbd4fc054	-0.050720528
94	0x3d30d4f6	0.043171845
95	0xbd50ffbb	-0.051025134
96	0x3d6b77c3	0.05748726
97	0x3d1d46be	0.038397543
98	0x3aeeec9a	0.0018228472
99	0xbc6b3f88	-0.014358409
100	0x3d2a4eab	0.04157893
101	0xbbc14894	-0.0058985446
102	0x3b816813	0.003949174
103	0x3ca5182f	0.020153133
104	0xbd84f2ca	-0.06491621
105	0x3d53d1a8	0.051713616
106	0x3d5d6554	0.054051712
107	0xbca772c8	-0.020440474
108	0xbd817141	-0.063204296
109	0x3d9721a4	0.07379463
110	0xbd734798	-0.05939445
111	0xbd5215a5	-0.051290173
112	0x3c4ecc10	0.0126218945
113	0x3d6dbc39	0.05804083
114	0xbd199562	-0.03749598
115	0xbd0c43a2	-0.034244187
116	0xbd191fe0	-0.037383914
117	0x3d8bc838	0.06825298
118	0xbd8a9df0	-0.067684054
119	0xbcfed900	-0.031109333
120	0x3d29312e	0.041306667
121	0x3d223879	0.039604638
122	0x3c7fef0b	0.015620957
123	0xb9a8b147	-0.0003217554
124	0xbd8dec56	-0.06929843
125	0xbc863130	-0.016380876
126	0xbd307ab8	-0.043085784
127	0x3d394f98	0.045241922
128	0x3d9c1a65	0.07622222
129	0x3d96b4af	0.073586814
130	0xbd31d305	-0.043414135
131	0xbd023018	-0.031784147
132	0x3c3466eb	0.011010866
133	0xbd4422a5	-0.047884602
134	0x3ce7c59c	0.02829247
135	0xbd265167	-0.040604975
136	0xbd050415	-0.032474596
137	0x3bf79aba	0.0075562866
138	0xbd16e097	-0.03683528
139	0xbd97ca32	-0.074116126
140	0xbda073a9	-0.078345604
141	0x3c9809c5	0.018559346
142	0xbcc07103	-0.023491388
143	0xbc27c75b	-0.010240401
144	0xbda2c1a4	-0.0794709
145	0x3c6aeb02	0.014338257
146	0xbd5ac42a	-0.053409733
147	0x3d39be46	0.045347475
148	0x3d511cbf	0.051052805
149	0xbd889c80	-0.06670475
150	0xbbdb91ec	-0.006700745
151	0xbc564fcf	-0.013080551
152	0xbd476580	-0.048680782
153	0x3d9dccee	0.07705103
154	0x3d02a25b	0.031893115
155	0x3d823513	0.06357779
156	0x3d5a42fd	0.05328654
157	0xbd41a872	-0.047279783
158	0xbb85f0c1	-0.004087538
159	0x3bbb93ca	0.005724405
160	0xbc665f1e	-0.014060764
161	0x3d833277	0.0640611
162	0x3d99d9ea	0.07512267
163	0x3d09bd6a	0.033627905
164	0x3c99ea26	0.018788408
165	0x3d890728	0.06690818
166	0xbb9bc53e	-0.0047537377
167	0x3d8f9dab	0.07012495
168	0xbd8efe09	-0.06982047
169	0x3c3338b2	0.01093881
170	0x3cd7ab3c	0.026326768
171	0x3cf6cced	0.030127013
172	0x3d17a504	0.037022606
173	0xbd986ea9	-0.07442982
174	0xbccd7d59	-0.025084184
175	0xbcf4cc70	-0.02988264
176	0x3d500567	0.050786402
177	0x3d9b6417	0.0758745
178	0xbaa7d2ff	-0.0012803971
179	0xbd0f612c	-0.03500478
180	0x3d30416b	0.043031137
181	0x3d68024b	0.05664281
182	0xbc9656e5	-0.018351981
183	0x3da6edcf	0.08150827
184	0xbd83b775	-0.06431476
185	0xbc03233d	-0.008004007
186	0xbd437bd0	-0.0477255
187	0x3d226f0e	0.03965669
188	0x3d8409fd	0.064472176
189	0x3d708416	0.058719717
190	0xbc2224d7	-0.009896479
191	0xbd2cfdc5	-0.0422342
192	0xbc6ba043	-0.014381471
193	0xbd43b9ee	-0.04778474
194	0x3d395bfd	0.045253742
195	0xbd1394d1	-0.036030594
196	0xbd3a80b0	-0.045532882
197	0x3c4903c3	0.012268963
198	0xbd8f3b4d	-0.069937326
199	0x3c9b3927	0.01894815
200	0xbd4a7aa1	-0.049433354
201	0xbc723085	-0.014782076
202	0xbc2126e7	-0.009835935
203	0xbd84fc0e	-0.06493388
204	0x3d8813de	0.06644414
205	0xbd96f1f5	-0.073703684
206	0xbd16d6a1	-0.03682578
207	0x3d997cdf	0.074945204
208	0x3d55cc18	0.052196592
209	0x3c92df0c	0.017928623
210	0xbc5c3b14	-0.01344182
211	0xba9c9df6	-0.0011948931
212	0xbd330665	-0.04370727
213	0xbd1e2151	-0.03860599
214	0xbd8a3621	-0.067486055
215	0xbbd6dff5	-0.0065574595
216	0x3d0d970f	0.03456789
217	0xbb42f485	-0.0029747796
218	0x3b871136	0.0041219248
219	0xbd6a25e9	-0.05716506
220	0x3cd7ecfb	0.026358118
221	0xbc4389bc	-0.011934694
222	0xbd314953	-0.043282818
223	0x3c2d30f2	0.0105707515
224	0xbd402578	-0.046910733
225	0xbd5aa95f	-0.05338418
226	0xbd596756	-0.053077064
227	0x3d40d0da	0.047074176
228	0x3d2ce5ec	0.042211458
229	0xbd7620d5	-0.060089905
230	0x3d94f534	0.07273331
231	0xbd5d9951	-0.054101292
232	0x3d9f6079	0.077820726
233	0x3d99ca28	0.07509261
234	0xbc6e0bc5	-0.014529173
235	0x3c9d86e5	0.019229362
236	0xbc09c0e9	-0.00840781
237	0x3d07dbbf	0.03316855
238	0xbca1df4a	-0.019759793
239	0xbd45abbe	-0.04825949
240	0xbd317225	-0.043321747
241	0x3cdb4749	0.02676739
242	0x3d85c531	0.06531752
243	0x3c2f487b	0.010698433
244	0x3d2d6b53	0.04233868
245	0x3d682508	0.05667594
246	0xbd23ad33	-0.039960098
247	0xbd085874	-0.03328748
248	0x3d88c6d8	0.066785514
249	0xbd87d6d7	-0.06632774
250	0xbd618d6f	-0.055066522
251	0x3d426f1d	0.047469247
252	0x3d61e76d	0.055152345
253	0xbc49865f	-0.012300103
254	0x3b0b26f9	0.0021232946
255	0xbc1c7b55	-0.009550889

conv4.bias f4 [16]
0	0xbd80448e	-0.06263076
1	0x3d91eedc	0.07125637
2	0x3d01375e	0.031546943
3	0x3d6028e3	0.054726493
4	0x3d65f01b	0.056137186
5	0xbd71da50	-0.05904609
6	0x3d9bc8d0	0.07606661
7	0x3cb4201b	0.021987965
8	0xbd5ac1fe	-0.05340766
9	0xbc83f366	-0.016107272
10	0xbda4bb92	-0.08043589
11	0xbd8389ba	-0.06422754
12	0x3d045620	0.032308698
13	0x3c064436	0.008194974
14	0x3d2730b3	0.040817928
15	0x3d297838	0.041374415

bn4.weight f4 [16]
0	0x3f8006c7	1.0002068
1	0x3f800f18	1.0004606
2	0x3f8006ea	1.000211
3	0x3f7ffddd	0.9999674
4	0x3f7fef3b	0.9997441
5	0x3f801f62	1.0009577
6	0x3f7ff775	0.99986964
7	0x3f800798	1.0002317
8	0x3f800985	1.0002905
9	0x3f800152	1.0000403
10	0x3f80084c	1.0002532
11	0x3f80015e	1.0000417
12	0x3f8003e4	1.0001187
13	0x3f7ff7dc	0.9998758
14	0x3f7fe5c4	0.9995997
15	0x3f80067a	1.0001976

bn4.bias f4 [16]
0	0x388370a3	6.267547e-05
1	0x38be1aed	9.064921e-05
2	0x36cadb9a	6.045634e-06
3	0x3877457b	5.8954098e-05
4	0x37e6df6b	2.7522174e-05
5	0x395c57c4	0.0002101353
6	0xb852ce7a	-5.0260198e-05
7	0xb7f3ab8f	-2.9047746e-05
8	0x391a7959	0.0001473179
9	0x37c5978f	2.3554805e-05
10	0x3930de3b	0.00016867455
11	0xb7462650	-1.181064e-05
12	0x375da0bd	1.3210051e-05
13	0xb7b26067	-2.1264144e-05
14	0xb8b1dd39	-8.4812236e-05
15	0x37f34451	2.899967e-05

bn4.running_mean f4 [16]
0	0xbd2cbbc8	-0.04217127
1	0x3d2557bd	0.040366877
2	0xbd48fcb0	-0.049069107
3	0x3ebfb138	0.37439895
4	0x3f0bed02	0.5465852
5	0x3f0a4b92	0.5402156
6	0xbbb43339	-0.0054992703
7	0x3a8b92dd	0.0010648627
8	0x3e30f37c	0.17280382
9	0x3d8846af	0.06654107
10	0xbf1c14c0	-0.6096916
11	0xbef2bfb2	-0.47411877
12	0xbe4b71b6	-0.19867596
13	0xbe87d614	-0.26530516
14	0x3e09c6d0	0.13454747
15	0xbdd7a1b5	-0.1052889

bn4.running_var f4 [16]
0	0x3e8c47e9	0.27398613
1	0x3e0639e0	0.13108015
2	0x3e96a471	0.29422334
3	0x3e45541a	0.19270363
4	0x3f0d983e	0.5531043
5	0x3f0f6f92	0.5602962
6	0x3e6d8101	0.23193742
7	0x3e0141ad	0.1262271
8	0x3e860956	0.26178998
9	0x3e8be26f	0.27321193
10	0x3ea0104b	0.3126243
11	0x3ebd83bc	0.37014568
12	0x3e9d78b7	0.3075616
13	0x3e81fb24	0.25386918
14	0x3e33b1b4	0.17548257
15	0x3e218cbf	0.15776347

fc1.weight f4 [16, 4096]
0	0xbc4a026a	-0.012329677
1	0x3ba3584e	0.004984892
2	0x3c728b02	0.01480365
3	0x3b3c84fc	0.0028765788
4	0x3c5f2209	0.013618954
5	0xbb979ceb	-0.0046268604
6	0x3c66e86f	0.014093502
7	0xbc569680	-0.013097405
8	0x3b888896	0.004166673
9	0xbc2e31c8	-0.010631986
10	0xbb7a2793	-0.003817056
11	0xbba42e19	-0.005010378
12	0xbc0782fe	-0.008270977
13	0xbc61fdb8	-0.013793401
14	0xbbf28fa4	-0.007402377
15	0x3c175e81	0.00923884
16	0x3c019063	0.00790796
17	0x3c5fe0fd	0.013664481
18	0x3c479224	0.012180839
19	0xbc060ca6	-0.008181727
20	0xbc451c9d	-0.012030748
21	0x3c78465c	0.015153494
22	0xbbd3021e	-0.0064394614
23	0xbc5eb18e	-0.013592137
24	0xbc34d3ee	-0.011036856
25	0xba6af46a	-0.0008962812
26	0x3c748e44	0.014926497
27	0x3c1ff66c	0.009763341
28	0x3b8b0d0b	0.004243498
29	0xbb46617b	-0.0030270505
30	0x3bd74ca3	0.006570415
31	0x3c73e511	0.014886157
32	0x3c7616fe	0.01502013
33	0xba7df89e	-0.0009688231
34	0x3c6b6236	0.014366677
35	0xbbe2539d	-0.00690694
36	0xb943fde2	-0.00018691228
37	0xbc229645	-0.009923522
38	0xba2b6933	-0.0006538808
39	0x3bfba97c	0.007680116
40	0x3ba20b2c	0.0049451794
41	0xb9c2d22a	-0.00037159148
42	0x3c7c1c89	0.015387663
43	0x3bc525f9	0.0060164896
44	0x398cdd35	0.00026867693
45	0x3c2ae4cc	0.010430526
46	0x3bdda124	0.006763594
47	0x3c4ac949	0.012377092
48	0x3b60a5e8	0.0034278575
49	0xbc2979de	-0.010343997
50	0xbbe823ff	-0.007084369
51	0xbc6ce631	-0.014459179
52	0x3b2c30d4	0.002627422
53	0xbad78b97	-0.0016444799
54	0x3b3533a8	0.0027649198
55	0xbb751b8e	-0.0037400457
56	0xbbaa9c28	-0.0052066036
57	0x3c402cf1	0.011729465
58	0x3b4b17cc	0.0030989526
59	0xbbfa0edc	-0.007631166
60	0x3ad480a9	0.001621266
61	0x3c12306a	0.008922676
62	0x3c78b7c2	0.01518053
63	0xbc239c88	-0.00998605
64	0x3c6aa93c	0.014322575
65	0x3c0b2ac5	0.008494084
66	0x3bb48e63	0.005510138
67	0xbc3ecd40	-0.011645615
68	0x3c34a5de	0.011025874
69	0xbb550caf	-0.003250878
70	0xbc1052bd	-0.008808789
71	0xbbd38a03	-0.0064556613
72	0xbbd4ec75	-0.0064979144
73	0xbc5ae00e	-0.013359083
74	0xbb93d361	-0.0045112823
75	0x3bc1e155	0.0059167542
76	0xba9edfa9	-0.0012121099
77	0xbc5e6bc3	-0.013575497
78	0xbb97cd8e	-0.0046326583
79	0xbc5bcee5	-0.013416027
80	0xbb025cf8	-0.001989184
81	0xbc3523e8	-0.011055924
82	0x3bb65fef	0.0055656354
83	0x3c76d843	0.015066209
84	0x3b4d82ae	0.0031358409
85	0xba9080a9	-0.0011024672
86	0x3c7b1bab	0.015326421
87	0xbb872065	-0.004123735
88	0xbb1ebc6a	-0.002422119
89	0x3c221145	0.009891813
90	0xbb940699	-0.004517388
91	0x3c4c2d5f	0.012461989
92	0x3c38866f	0.01126252
93	0xbc6773af	-0.014126702
94	0x3be991fe	0.0071279993
95	0x3c7ad345	0.01530916
96	0x3c30d61d	0.010793236
97	0x3c243813	0.010023135
98	0x3c039e50	0.00803335
99	0x3c5dff62	0.013549658
100	0xbc28b4f9	-0.0102970535
101	0x3c479016	0.012180349
102	0x3ac02744	0.001466014
103	0x3b3eef09	0.0029134175
104	0xbbd35d8d	-0.006450361
105	0xbb27e622	-0.0025619348
106	0x3b686a3f	0.0035463718
107	0xbbdaf107	-0.0066815647
108	0x3c56e04d	0.013115001
109	0xbc541472	-0.012944328
110	0xbb85498f	-0.0040676068
111	0xbc19c856	-0.009386143
112	0x3af473b4	0.0018650205
113	0x3bb3e996	0.005490492
114	0x3bc89514	0.006121287
115	0xbc0d3e7a	-0.008620853
116	0x3b8b1428	0.004244346
117	0xbb7c24a6	-0.0038473993
118	0xbba3f858	-0.00500397
119	0x3a8077cd	0.0009801328
120	0xbb1075f3	-0.002204296
121	0xbc6da2e2	-0.014504166
122	0xbc5c523c	-0.013447341
123	0xbbd150a4	-0.006387787
124	0x3c18bc1f	0.009322195
125	0xbc4a4bcf	-0.012347176
126	0xbbf165cd	-0.007366872
127	0x3c1124f4	0.008858908
128	0xbc2c3481	-0.010510565
129	0xbc53b19b	-0.012920762
130	0x3bd7e434	0.006588483
131	0xbc54c486	-0.012986308
132	0xbc7f5b0c	-0.015585672
133	0xbbfc306e	-0.007696203
134	0x3c2deea3	0.010615977
135	0x3bf5bb7d	0.007499157
136	0xbb1fe14f	-0.002439577
137	0xbc5d8c31	-0.013522194
138	0x3c460c76	0.012087932
139	0x3c53cd6f	0.012927397
140	0x3c3694d1	0.011143879
141	0xbc1686d3	-0.009187418
142	0xbc218cef	-0.009860261
143	0xb88232c9	-6.2083425e-05
144	0xbb5c7ebf	-0.0033644882
145	0xbaeac46b	-0.001791132
146	0xbbbd5a86	-0.0057786135
147	0x3c4eaab1	0.012613938
148	0x3b062a81	0.0020472112
149	0xbc68f080	-0.014217496
150	0xbc159e75	-0.009132017
151	0xba902f41	-0.0011000411
152	0xbc2fcca8	-0.010729946
153	0x3c744937	0.014910034
154	0x3bcf1555	0.0063196816
155	0xbc555f4d	-0.01302321
156	0x3c45133b	0.012028511
157	0x3c256646	0.010095185
158	0x3c624105	0.013809447
159	0xbc493e92	-0.012282984
160	0xbace0c62	-0.0015720243
161	0xbc5bc80a	-0.013414392
162	0x3c58ee55	0.0132404165
163	0x3c0bc8e7	0.008531786
164	0x3b6c2225	0.0036031094
165	0x3c320549	0.010865518
166	0x3c732005	0.014839177
167	0x3c07bcaa	0.008284727
168	0x3b4e4b33	0.0031477928
169	0x3c762284	0.015022878
170	0x3c1d8a3f	0.00961548
171	0x3b48f2db	0.0030662331
172	0x3c54a2bc	0.012978252
173	0x3bced361	0.0063118194
174	0xbb8be49d	-0.004269196
175	0x3b075eb2	0.0020655808
176	0x3b765278	0.0037585776
177	0xbc49efae	-0.0123252105
178	0xbb30454c	-0.0026896773
179	0xbb8fdaed	-0.0043901117
180	0xbc53bb30	-0.012923047
181	0xb9ae0c4b	-0.00033197025
182	0xbbbcbfa7	-0.0057601514
183	0x3c6d4af1	0.014483199
184	0xbb7fc17e	-0.0039025242
185	0x3b4adbe8	0.0030953828
186	0xbc5f8552	-0.013642626
187	0xbc40b76a	-0.011762479
188	0xbc43b733	-0.011945534
189	0xbc76badf	-0.015059202
190	0xbc476733	-0.012170601
191	0x3c3e876c	0.011628967
192	0x3c3a24bd	0.011361298
193	0xbc17d723	-0.009267601
194	0xbb39b408	-0.0028336067
195	0x3b36c1dd	0.0027886548
196	0xbc643ad3	-0.01393004
197	0x3c36410a	0.011123905
198	0xbc3deb56	-0.011591753
199	0x3c17e1f3	0.009270179
200	0xbc1b5d0f	-0.009482636
201	0x3c6f51c0	0.014606893
202	0xbbb1daf8	-0.0054277144
203	0x3c464d85	0.012103443
204	0xba9ed631	-0.0012118277
205	0xbc548ecf	-0.012973501
206	0xbc1185f3	-0.008882034
207	0xbc0e39d9	-0.008680784
208	0x3a2a4ef5	0.0006496751
209	0x3bc405a0	0.005982116
210	0xbbf6ca13	-0.0075314133
211	0xbbd5d998	-0.0065261833
212	0xbc4c22de	-0.012459485
213	0x3b6d3713	0.0036196157
214	0x3c2f1695	0.010686536
215	0xbbf0e438	-0.0073514245
216	0x3c7031a8	0.0146602765
217	0xbc069162	-0.008213373
218	0x3c54cc64	0.012988184
219	0xba3df44d	-0.00072461815
220	0xbc525394	-0.012837309
221	0x3b4ed341	0.0031559023
222	0xbb6a0ece	-0.003571439
223	0x3b78703b	0.0037908691
224	0xbb99a3e2	-0.004688726
225	0xbc24d8d2	-0.01006146
226	0x3c0abce1	0.008467884
227	0x3c5567f1	0.01302527
228	0xbc1bfad1	-0.0095202485
229	0x3be3bb66	0.00694983
230	0x3c0f5a30	0.00874953
231	0xbc5dce2b	-0.013537924
232	0x3c2c60b4	0.010521103
233	0xbbf1f4fc	-0.0073839407
234	0x3b839673	0.0040157377
235	0x3bdc94bc	0.0067315977
236	0x3c049ec0	0.00809449
237	0xbc67e111	-0.014152781
238	0x3be4a9d1	0.0069782515
239	0x39c718fc	0.00037974853
240	0x3a603889	0.0008553346
241	0xbc385025	-0.011249577
242	0x3b66e87e	0.003523379
243	0x3c43e54c	0.011956524
244	0xbc164d7f	-0.00917375
245	0x3c3098b4	0.010778595
246	0x3b0035de	0.0019563357
247	0x3c051b8d	0.008124244
248	0xbbfad077	-0.0076542455
249	0xbb9864bc	-0.0046506803
250	0x3b940019	0.004516613
251	0x3b0decaa	0.0021655955
252	0x39d4a1c0	0.00040556304
253	0xbbf813ec	-0.0075707342
254	0xbc624d98	-0.013812445
255	0xbc084db9	-0.008319312

fc1.bias f4 [16]
0	0x3c73b5e3	0.014874908
1	0xbc64af27	-0.013957775
2	0x3a75122f	0.0009348718
3	0xbb1141ba	-0.002216442
4	0xbb80b6fa	-0.0039280625
5	0xbbda7401	-0.006666661
6	0xbbf9ff98	-0.007629346
7	0x3c0d974d	0.00864203
8	0xbbb910c1	-0.005647749
9	0x3c015f28	0.007896222
10	0x3abb4050	0.0014286134
11	0x3b87de89	0.0041464013
12	0xbb4a7dc6	-0.003089772
13	0x3c824d98	0.01590614
14	0x3c6cf6a7	0.014463103
15	0xbc34d08f	-0.011036052

fc2.weight f4 [2, 16]
0	0xbe2921f1	-0.16516854
1	0xbd090589	-0.033452544
2	0xbe50cf58	-0.20391595
3	0xbe6ee2ca	-0.233287
4	0x3cb915b9	0.022593366
5	0xbcc5e65e	-0.0241577
6	0x3dcc3e95	0.09972874
7	0xbe43934d	-0.1909916
8	0xbe6e978c	-0.23299998
9	0x3e4e6c79	0.20158567
10	0x3d9c7f9f	0.07641529
11	0xbe4063fb	-0.1878814
12	0xbe0834ed	-0.1330144
13	0xbd834d6c	-0.064112514
14	0x3e625ea4	0.22106415
15	0xbe4af13d	-0.19818588
16	0xbe608a7b	-0.21927826
17	0xbde76004	-0.112976104
18	0x3d6e6f3c	0.05821155
19	0xbe597e91	-0.21239688
20	0x3d2f1a49	0.042749677
21	0x3d5b8573	0.053594064
22	0xbdbd88d8	-0.092546165
23	0xbdb534fd	-0.08847997
24	0x3e44231b	0.19154017
25	0xbb74580e	-0.003728393
26	0xbe674950	-0.2258656
27	0xbd3b56e9	-0.04573718
28	0x3d942292	0.07233156
29	0x3e088f3a	0.13335887
30	0x3d760f5a	0.060073234
31	0x3da40462	0.080086485

fc2.bias f4 [2]
0	0xbe523401	-0.2052765
1	0x3d9e3430	0.07724798
